02-nn/net.pkl (torch, 2447 bytes, 3 tensors)

weight f4 [10, 1]
-0.16827798 0.2723784 -0.49806815 -0.063149646 -1.2177478 0.6068063 -0.10345812 0.40025666
-0.030347079 -0.07637046
00000000: 1051 2cbe 2f75 8b3e ca02 ffbe 9a54 81bd
00000010: 29df 9bbf a857 1b3f dae1 d3bd 71ee cc3e
00000020: 709a f8bc 1e68 9cbd

bias f4 [10]
-0.80038786 -2.036049 -1.6743486 -1.3174927 -0.5124848 -0.96876717 -0.9525075 -0.8793674
-2.6562011 -2.1392236
00000000: 38e6 4cbf a04e 02c0 0e51 d6bf 9aa3 a8bf
00000010: 3432 03bf 2001 78bf 88d7 73bf 391e 61bf
00000020: 33ff 29c0 0ae9 08c0

weight f4 [1, 10]
0.30405596 -1.1270094 -1.2804209 -0.60822654 0.8287645 -0.22158703 -0.50758064 -0.66026026
-1.9805002 -1.4033716
00000000: 39ad 9b3e d841 90bf d5e4 a3bf bcb4 1bbf
00000010: e929 543f b6e7 62be cef0 01bf d106 29bf
00000020: 0881 fdbf aea1 b3bf
